mnist_net.pth (torch, 852999 bytes, 10 tensors)

conv1.weight f4 [16, 1, 5, 5]
00000000: 8cde 7f3c 0108 413e 325f b4bc b386 a7bd
00000010: b101 06be 2e4e 7d3e 3d39 1b3e 2893 663d
00000020: ced1 8a3d 879b 5abe 6125 6fbe 98e9 56be
00000030: 1bd4 e7bd 69cd 15be f5fb 963c 8a3d 07be
00000040: eba6 8ebe 2232 85be 5fcc 7ebe eabc 6ebe
00000050: 34b0 89be e9d6 72be ea69 f73b 35e8 a5bd
00000060: 13f0 00be 012b 2a3c 17c6 b5bc 056d 0abe
00000070: 3fdd 7cbd 5dfb d2bd 54d6 66be 82d7 f1bc
00000080: a1a1 40be b8c3 543c 2f66 8abd e0f7 57be
00000090: 367b 373d f758 703d f2ec 99bd 29d3 73bd
000000a0: 941d 51bd c85f 303e 1ade b4bd c6d3 11be
000000b0: 4622 95bd 7d9a 263e 3fed 863d c564 45be
000000c0: d74d 7d3d dfb7 36be 3cbc d43c aaaa 7dbd
000000d0: d53b 483d 3d1c 6dbe 2363 3e39 1a15 61be
000000e0: bbdf 2ebe 33bb 1dbd db30 61be 3c34 9abe
000000f0: da48 463d 14f2 67bd 566e 60be 050c a9be
00000100: f21f b1bd 9e44 bdbd 9fab 8dbe 76fe b93c
00000110: f1fd e7bc c776 92be 18e0 63bd 7af3 80be
00000120: fbef 8ebe f9df fdbd 2f40 34be 9090 5e3e
00000130: 8557 8c3e a35d 46be fcca eebd e025 90be
00000140: b908 9a3e 294b 6d3e 37ba 8ebd e343 14be
00000150: 4492 5f3d bc2f 213d e1d6 923e 7548 36be
00000160: d616 09be c746 4cbe f65a dc3a f8e3 243e
00000170: 7e99 3fbd 322d f6bd 35a7 c7bd 97ce 893e
00000180: 93b6 46bc 2b36 163e fa43 c9bd 43c1 70be
00000190: c7b8 053e ea11 47be e67d a13c bd85 78be
000001a0: 74ed 1bbd 43c3 d33d b549 69be 3f9e 3ebe
000001b0: f396 46bd 8adb e33d 922d dc3d 9341 2ebb
000001c0: 7b99 91bd dda7 70be c459 f2bd 9d92 683e
000001d0: ddd2 8a3e cb55 fe3c 875d 193e 70e3 36be
000001e0: 1f7c 823e 1f7a c43d ea00 9cbc 675d 823e
000001f0: fdad 7cbd da5c 2bbd 54b7 373d efe6 3bbc
00000200: e40e f13c 03d8 c7bd e894 f7bd 4644 e23d
00000210: cfbe 6b3e b475 4b3e fdac 4a3d 4d32 edbd
00000220: 7d77 8f3d 5817 b03d ddd3 183d 60a4 6bbd
00000230: 5c7e 163e edbe 2a3e 1604 233d dc74 65be
00000240: 0884 49be c81d e83d 9f50 583e 9cdb b43d
00000250: a5df 47be df99 083d a58d ba3d 90f6 df3d
00000260: c43d 13be 3a2c 47be 37d6 a8bd 0085 36be
00000270: 9102 b1bd 6cb7 11bd 8de8 30be 502e 6fbe
00000280: 2a7a fbbc 7929 3cbe 7940 34be 3602 c4bd
00000290: ca87 1c3d ce38 7abe 3750 b53a 8b42 48be
000002a0: 1c16 82be 0c5c 10be ba18 27be 952c 60be
000002b0: 8977 643d 2206 c2ba bed8 15bb 1ae5 863e
000002c0: 7f46 483e c5ef 653e 05cd 5cbc 8352 9c3e
000002d0: 2f6b 4b3e 7f0e 943e 662d ad3e ffea 913e
000002e0: 090b 5b3e e33a 3dbe 33af 09be 62e0 a73c
000002f0: 96f5 1cbe f6b9 29be c046 613d cd84 0fbe
00000300: f584 7abe f050 c7bd 1283 50be ee4b a03c
00000310: d0a8 a6be b02e 70be 4056 abbd e956 5abe
00000320: b3bf de3d 71c9 b3bc 7b95 68be 9494 0b3e
00000330: 0406 74be ba16 9b3e 5566 ae3d 9567 40be
00000340: b3d9 46bd 7c7c a33b 81f4 6d3e a413 8f3c
00000350: 25cd 9dbd 256c d73d 3097 5a3d 6d5c 4d3e
00000360: 9d51 003e f281 3a3e 3e55 023e 263b 2abe
00000370: c811 14be d3ca 42be 28c9 26be b73c e1bd
00000380: 1588 9b3d 753d 63be 986c 69be bddd 28be
00000390: a338 8fbe 0180 24be 4475 63be 58fd 5abd
000003a0: 0b33 5abe 18e0 c5bd 0ec4 103d c7f0 2ebe
000003b0: 4a7f c7bd e053 06be e813 9dbe f308 363e
000003c0: 172d 8fbe b238 44be c555 36be d4cf b4bd
000003d0: be64 5b3e 7046 99bd fb7b 123d 8b38 5dbe
000003e0: de97 cdbd ef15 023e 2b57 483e 627a f53c
000003f0: e876 96bb 5159 05be 09db 4dbe 4a7f 7c3e
0.015617024 0.1885071 -0.022018049 -0.08179989 -0.13086583 0.24736854 0.15158553 0.056292683
0.06778298 -0.21348391 -0.23354103 -0.20987546 -0.11319753 -0.14629139 0.01843069 -0.13207069
-0.27861723 -0.2601481 -0.24882649 -0.23314252 -0.26892245 -0.23714794 0.0075504677 -0.081009306
-0.12591581 0.0103862295 -0.022189183 -0.1351815 -0.061734434 -0.1030185 -0.22542697 -0.029521707
-0.18811657 0.012986116 -0.06757771 -0.2109065 0.044795237 0.058678593 -0.07515897 -0.05952755
-0.0510536 0.17224038 -0.08831425 -0.14240941 -0.07281928 0.1626987 0.0658822 -0.19276722
0.061841812 -0.17843579 0.025968663 -0.061930336 0.048885185 -0.23155303 0.00018156743 -0.21980706
-0.17077534 -0.038508605 -0.21991293 -0.30117977 0.04840932 -0.056627348 -0.2191709 -0.33016983
-0.08648671 -0.09241603 -0.2767 0.022704344 -0.02831933 -0.28606245 -0.055633634 -0.25185758
-0.27917466 -0.12396235 -0.17602609 0.21734834 0.27410522 -0.19371657 -0.1165981 -0.28153896
0.3008478 0.23173203 -0.069691114 -0.14479022 0.05458285 0.039352164 0.28679565 -0.17801078
-0.13387617 -0.19948874 0.0016811776 0.16102588 -0.04677724 -0.12020339 -0.09748689 0.26915428
-0.01212849 0.14669101 -0.098274186 -0.23511223 0.13058768 -0.19440427 0.019713353 -0.24269767
-0.03806825 0.103399776 -0.22782023 -0.18615054 -0.0484838 0.11125858 0.10750879 -0.0026589378
-0.07109352 -0.23501535 -0.11833528 0.22712179 0.27114 0.031046769 0.14977084 -0.17860198
0.25485322 0.09593605 -0.019043405 0.25461885 -0.061689366 -0.041836597 0.04485257 -0.011468633
0.029426046 -0.09757998 -0.120889485 0.110481784 0.23022006 0.19869119 0.04948138 -0.1158186
0.070052125 0.085982025 0.037311424 -0.057529807 0.1469664 0.16674395 0.03979882 -0.2240786
-0.19679272 0.11333805 0.21124505 0.0883095 -0.19518907 0.033349868 0.09109048 0.109357
-0.1437903 -0.19450465 -0.08243983 -0.17824173 -0.08643068 -0.035575315 -0.17276211 -0.2335751
-0.0306979 -0.18375196 -0.1760272 -0.09570734 0.038215436 -0.24435732 0.001383311 -0.19556634
-0.25407493 -0.14097613 -0.16318026 -0.21892007 0.05577806 -0.0014802853 -0.0022864784 0.26346666
0.19558142 0.22454746 -0.013476615 0.305317 0.19865106 0.2891731 0.338237 0.284996
0.21390928 -0.18479495 -0.1344574 0.020492736 -0.15328059 -0.16574845 0.054999113 -0.14015503
-0.24464782 -0.097322345 -0.203625 0.019567456 -0.3255067 -0.2345531 -0.0836606 -0.21322216
0.108764075 -0.02194664 -0.22713272 0.13630897 -0.2383042 0.30290776 0.08515612 -0.18789513
-0.048547458 0.004989205 0.23237802 0.01746542 -0.07705144 0.10518674 0.05336684 0.20054789
0.12531133 0.18213633 0.1272783 -0.16624126 -0.14459908 -0.19022684 -0.16287673 -0.109979086
0.07594315 -0.22191413 -0.22795331 -0.16490836 -0.27972898 -0.16064455 -0.22212702 -0.053464264
-0.21308534 -0.09661883 0.035343222 -0.17084037 -0.09741075 -0.13117933 -0.3067925 0.17776851
-0.27964088 -0.19162253 -0.17806156 -0.088287026 0.21425149 -0.07484138 0.03576277 -0.216036
-0.10038732 0.1270368 0.19564502 0.029965583 -0.0045918114 -0.13022353 -0.20103087 0.24657932

conv1.bias f4 [16]
00000000: 349b d73d 3815 233e fb5e 0e3e c7aa ad3d
00000010: a4d9 093e 3663 943d 3d2f 5fbb d2d8 573e
00000020: ab0a 3c3e a339 303e 7817 94bd 13c8 ef3c
00000030: 1a88 b33d babc f03d 8fca a4bd 15fa 243d
0.105276495 0.15926063 0.1390342 0.08479839 0.1346193 0.072454855 -0.0034055256 0.21078804
0.18363445 0.17209487 -0.07231039 0.029270208 0.08766194 0.11754747 -0.080464475 0.04027756

conv2.weight f4 [32, 16, 5, 5]
00000000: 2666 313d 2a64 083d 5cad c33b 9193 b6bc
00000010: c6f8 83bc 7215 42bb 635a d33b cc10 a23c
00000020: 021c 483c dfa8 0c3d fd9a 923d a943 bd3c
00000030: 5218 643c dc60 40bd 864f 12bd c104 3b3b
00000040: 8aae 503d 7256 07bc 8230 bdbc 343f 33bd
00000050: eec2 c83c d5f5 9bbc 4f48 e3bc 1f9c edbc
00000060: 35ec 30bd 104d b2bc f25e da39 94ef 483d
00000070: ef1c 27bd d534 1c3c 470b f13b 5f5c 27bb
00000080: 0e8a 243c d7fd dabc 40e5 013d 6b87 4fbc
00000090: 728d 27bd 0b6e f6bc be1d 23bd 8826 0dbd
000000a0: e974 50bc 881c 303d f47c 6a3c 022a 0b3d
000000b0: c274 21bd 65a2 d43b 05ae dfbc 8824 b7bc
000000c0: 432a 7c3c 3986 6d3c f62f 4c3c 1d09 013d
000000d0: 8950 b9bc 61e7 83bc 4ffd 27bd fdb7 0d3b
000000e0: 5fb8 39bc 3682 073a a5a7 2b3d be2f edbc
000000f0: 8a22 b53c 62fc dd3c d490 613d 49d1 a53a
00000100: 105d 72bd 0e39 de3c 6b3b 59bc 1617 69bd
00000110: 4f7c 12bd c29e a1bc a2d8 843b 0935 eebb
00000120: e4e1 17bd f754 00bd 1224 4fbd d3aa a7bb
00000130: d13c 0fbd 01b7 36bc 57da 383c 2f9d c1bb
00000140: ef35 953c 6876 24bd cdda ccbc 77de 2d3d
00000150: 9e0e 863d 1a81 a23c 068b 313c 2529 a53c
00000160: 4b67 ccbb d0ac f5bc feec 153c 9233 95bc
00000170: 84e1 d43b c40c 43bd 30bd 423d cc06 f3bc
00000180: a0c9 6fbd 3509 2abd a1ac 4ebb 32d2 fabc
00000190: 5443 74bc ff55 11bd 4ee6 3d3d f316 5d3c
000001a0: 8427 723d cd42 083c e4f1 dbbc 79a5 63bd
000001b0: ad68 4cbd 2550 053d f48f d93c 0887 4fbc
000001c0: b736 b8bc 3342 9e3c 9349 1c3d cc67 e83c
000001d0: 974f f1bb 10f2 af3c b8bd f9ba 3c50 143d
000001e0: 961f 9f3c f44c 51bd 870b f23c 3af4 03bd
000001f0: ccbb 0c3b 1405 cdbc ca05 4dbc 6f86 4b3d
00000200: 2d95 9fbc fe07 d8bc cc3a 20bc 8961 12bd
00000210: 566d 1ebc 1816 21bd 932c 5e3c 814a 2ebd
00000220: e4ae bb3c e880 e0bc 2440 84bc b051 7c3d
00000230: dfb5 053d 0972 c83b 4a5b 893d 2dc0 b33c
00000240: a8fc 823d c463 84bc c156 923c aeef 8abc
00000250: 2fd0 143d 306b 35bd 9e39 73bc 1dc8 50bd
00000260: 82ea 4abd c08f 023d a857 023c 277e 25bd
00000270: c84b 483d 0092 c03b c173 533d ef25 aebc
00000280: 6dc5 4b3d 4d80 54bb a67d caba ae44 34bd
00000290: 0b0c 5cbd 5f43 2ebc 512e 013d 54d2 a03c
000002a0: 467f 33bd 376d 5c3c a74e ad3c d845 343d
000002b0: 9033 2fbc 1529 993c bf61 48bd b5d9 1fbd
000002c0: 89d1 ab3b 3143 94bc 75d9 cd3c 39bb c5bc
000002d0: be22 383d 5379 8c3d 9d49 243d face 28bd
000002e0: 2635 a2bc 77c1 7f3d d3c5 443d 82ca 663c
000002f0: 54a9 de3c 8860 ee3c 8874 abbb 13df 073d
00000300: 63a7 f63c 9e39 9abc 33a3 bdbc bf1e d93a
00000310: be07 3f3d ebb5 6d3d b393 253d 2a36 853d
00000320: 0718 013d 2d8e d83c fad9 cabc f4e2 bc3c
00000330: 9f9e d4bb 3b7d 813d a68c 453d e545 423d
00000340: 64f9 b5bc 7659 713c 2599 a03a 809e 06bd
00000350: 0144 113d cd14 5bbb 5369 593d d9d8 513c
00000360: a4c8 8dbc 4e18 373d d78f 22bd 6db5 bf3c
00000370: 7fb2 15bd 5a65 113d 37d7 27bc 7372 813d
00000380: a9c5 f83c 5468 f8bc 31f4 d0bb 7e49 2c3d
00000390: 18ed f63c 0e5b 133d 4698 dcbc 87b1 0e3d
000003a0: 0199 d4bc 36b8 063d c0e7 b7bc 12c2 e43c
000003b0: c881 603d 19e6 f03c 9f07 703d 6cc1 833c
000003c0: 5095 553d 1280 8bbb 08bd 283d 5e00 11bd
000003d0: e795 12bd 5660 85bc 9a8a 153d 8286 adbb
000003e0: ac93 c93b 68a9 e8b9 5a83 f6bc 022f 20bd
000003f0: 98c6 61bc 1bd2 583d e1c2 203c 41ab 98bc
0.043310307 0.03329865 0.005971594 -0.022287162 -0.016109835 -0.0029614833 0.006449984 0.0197834
0.012213709 0.034340736 0.07158468 0.023103552 0.013921814 -0.046967372 -0.03572037 0.002853677
0.050947703 -0.008260356 -0.02309442 -0.043761447 0.024507012 -0.01903812 -0.02774444 -0.029005108
-0.043194015 -0.021765262 0.0004165094 0.049056605 -0.040799078 0.0095340805 0.0073560807 -0.0025537235
0.01004268 -0.026732368 0.03171277 -0.0126665635 -0.040906377 -0.03008177 -0.039823286 -0.034460574
-0.012723186 0.04299596 0.014312018 0.03397561 -0.03941799 0.0064890855 -0.027304659 -0.022356287
0.015390935 0.014497333 0.012462607 0.03150283 -0.02262141 -0.016101541 -0.04101306 0.0021624558
-0.011335461 0.0005169244 0.041907925 -0.02895343 0.022111196 0.027097885 0.05506976 0.0012650873
-0.059170783 0.027126815 -0.013258795 -0.056906782 -0.03576308 -0.019729022 0.004054145 -0.007269506
-0.03708066 -0.03133103 -0.05057151 -0.0051167994 -0.03497011 -0.01115203 0.011282525 -0.0059086303
0.018214194 -0.040151983 -0.025006676 0.042448487 0.06545757 0.019836951 0.010836368 0.02016122
-0.0062378994 -0.02998963 0.009150742 -0.018213067 0.00649661 -0.047619596 0.047543705 -0.029666327
-0.058541894 -0.041512687 -0.0031536 -0.030617807 -0.01490863 -0.035482403 0.046362214 0.013494241
0.059119716 0.008316708 -0.02684874 -0.05557773 -0.049904514 0.032547135 0.0265579 -0.012666471
-0.022487028 0.019318676 0.038156103 0.028369807 -0.007364224 0.02147773 -0.0019053733 0.03620933
0.019424241 -0.05109878 0.029546512 -0.032215334 0.002147424 -0.025026836 -0.012513587 0.049688753
-0.019480312 -0.026370998 -0.009779643 -0.035737548 -0.009669622 -0.03932771 0.013560432 -0.04255152
0.022910543 -0.027405217 -0.016143866 0.06160134 0.03264415 0.0061171097 0.06706865 0.021942222
0.063958466 -0.016160853 0.017863633 -0.016959991 0.03633135 -0.044291675 -0.01484528 -0.050972093
-0.04954005 0.031875372 0.007955469 -0.04040351 0.048900396 0.0058767796 0.051624063 -0.021258323
0.049748827 -0.0032425106 -0.0015448823 -0.04401081 -0.053722423 -0.01063618 0.03153831 0.019631542
-0.04382255 0.013453773 0.021155668 0.04401192 -0.010693446 0.018696347 -0.048921343 -0.03902598
0.0052434844 -0.018098446 0.025128106 -0.024137126 0.044955008 0.06859078 0.040109266 -0.041213013
-0.019800734 0.06244036 0.048040222 0.014086368 0.027180351 0.029098764 -0.0052323975 0.033171725
0.030109113 -0.018826302 -0.023149109 0.0016564949 0.046638243 0.05803482 0.04042406 0.065044716
0.031517055 0.026434982 -0.024762142 0.023057438 -0.0064886357 0.06322714 0.048229836 0.047429938
-0.022213645 0.014730802 0.0012252672 -0.032866 0.035465244 -0.0033429146 0.05307896 0.012808048
-0.017307587 0.044700913 -0.039687958 0.02340194 -0.03654718 0.035497047 -0.010244182 0.063206576
0.03036769 -0.030323185 -0.006376766 0.042062275 0.030142352 0.03597551 -0.026928078 0.034837272
-0.025951864 0.03289052 -0.022449374 0.027924571 0.05481127 0.029406594 0.058601018 0.016083442
0.05214435 -0.0042572105 0.0411959 -0.03540074 -0.03578749 -0.016281288 0.036509134 -0.0052955756
0.006151637 -0.00044376706 -0.03009193 -0.03910733 -0.013780259 0.052934747 0.009812088 -0.018636348

conv2.bias f4 [32]
00000000: edf4 c03b ddf2 203d ffde 95bc 2370 78bc
00000010: f870 053d 803a 203c 162e dd3c c0a8 2a3d
00000020: 11ef 663c b10d e2bc 4518 1ebd 209e 813d
00000030: 68a6 913c badc 393d b585 5a3d 195d 313d
00000040: c97b 94bc df02 a53b 8118 8bbc 1ef9 3dbc
00000050: ebdd 24bc 2b05 243d 8576 a8bc 6917 243d
00000060: 126f dd3c ebc6 693c efe4 fdbc 8010 de3b
00000070: 377f 4a3d f5e1 d5bc 0990 08bd 36d3 bcbc
0.0058885724 0.039294112 -0.01829481 -0.015163454 0.03257844 0.0097795725 0.026999515 0.04166484
0.014095084 -0.02759442 -0.038597364 0.06328988 0.017779544 0.045376517 0.05335017 0.043301675
-0.018125432 0.0050357427 -0.016979458 -0.011595039 -0.010062675 0.04004399 -0.020564327 0.04006139
0.027030502 0.014268617 -0.030992953 0.0067768693 0.049437728 -0.026108721 -0.033340488 -0.023049932

fc1.weight f4 [120, 1568]
00000000: c579 35bc 6bd6 41bc 788d aabb af6c 353c
00000010: 00e3 043c 4cfa ac3b 4988 c5bb 2381 843c
00000020: 27f7 1bbc 386f bcbb 5f6a 80bb c264 9abc
00000030: d184 65bc 6e16 99bb 46ce d63b 19fb b63c
00000040: 0fb1 c0bc 3ced 28bc c031 ad3a 1c42 193c
00000050: dee2 cebc 88b1 263c bf83 a1bc b6f2 c5bc
00000060: 4c5a 86bb 921d 4ebc b698 e23b 50ee c13c
00000070: 36c2 b7bc e9e0 c2bc 218f f0ba 8e96 f6bb
00000080: d0dc e13b 51eb 4e3c 4ef6 b3bb 447a a8bb
00000090: 5a00 adbc 495b ba3c e548 cf3b a29f 0b3c
000000a0: c591 893c 881f 6abc 643d 05bb aac5 bf3b
000000b0: 4580 acbc ef79 71bc 4bb8 5dbc 4e1d 823b
000000c0: ac87 a23c e48e 40bb 84d1 823c 3a19 7f3c
000000d0: 61f2 9bbc a9ef ebba 2432 983b 2c48 4bbc
000000e0: c4e5 b2bc 46a3 a8bc 9b1b e43a 7ae6 683c
000000f0: 5abf b33c 06f5 9b3b 927f 54bc b2d0 a2bb
00000100: 2181 a2bc a43b 54bc 7722 d03b c069 f7bb
00000110: c944 c53c 6089 b3bb 7acb 1abc e749 633c
00000120: 8f43 a53c f040 9c3c 9104 fb3a 58db e1bb
00000130: c72b bcbb 0e66 f63a a773 083b 1cae a23c
00000140: af4c 1d3c de3e 34bc 9cf1 87bc e127 88bc
00000150: 7b0f c63c cc5d 8fbc d25f 6d3a 1a50 803c
00000160: 6490 97bc c590 c2bc 0c1f 45bc 8143 1fbc
00000170: b250 b53b b557 063c 62f5 4a3c 7c47 c33c
00000180: e3e6 ac3c b453 62bb f2a8 a6bc f5cd a83c
00000190: d8e4 513a 926a acbc 5979 afbc 0e99 c7bc
000001a0: 66df 3d3c 6ec0 b939 7da1 53bc 53cd 04bc
000001b0: 63fd 083c d9bb 93bc 69e1 90ba 248b 7bbc
000001c0: 7e16 f6ba 5adb bb3a 3ba8 1d3c f8b8 063c
000001d0: 22f2 77bc d2a3 b1bb b06f c0bc 9a69 5dbc
000001e0: 6f87 b5bc f25a 32bc 5388 c33c 132a 4bbc
000001f0: 5e9f b03b 513d b1bc f50f afbc 61bf af3c
00000200: 3eb2 133c 5b9f fd3a e6bf b5bc 0b6b 50bb
00000210: 78e4 753b c9e5 033c 8727 b6bc 5f23 be3c
00000220: 9900 96bc 0ced c1bc 0b5b 7dbc 160d 42bc
00000230: 7b8b 42bc 733a c2bc 588e a63c c107 cabc
00000240: 0a1e bd3c dfa0 b9bc 3a5b a23c 8206 75bc
00000250: f8e9 96bc 26c9 bb3c 1830 47bc 933b b33c
00000260: a79d ec3b 4859 b2bc 7356 d1bb 6a9e ddbb
00000270: 0f51 37bc d5b9 90bb ed9a 863b 53a4 b63c
00000280: 069d e23b ce5f 1d3c 5ef2 8b3c 6c07 823c
00000290: 0600 a9bc 6382 9fbc cd70 60ba 7c83 0f3c
000002a0: 0460 cc3a 09ec fc3b 9eea 693b 4362 103c
000002b0: efe3 56bc 160c b9bc 0157 14bc 2863 8d3a
000002c0: d987 9a3c 03c3 83bc d015 4fbc 6369 4b3c
000002d0: 3811 e43b 2546 81bc 2ebf 6e3c cc78 da3b
000002e0: 95d0 fa3b 7491 d7bb 519f 173c 78a4 7d3c
000002f0: 8e95 7bbc 2f16 8a3c ab51 c8bc 762d 05bc
00000300: 0223 7ebc 8c59 453b 92e2 993c e1de bcbb
00000310: 5afd 9bbc a4d6 c03c 5d75 8c3b d55e 983c
00000320: c4c1 723c 15ae a1bb 6c82 46bb 5220 a03c
00000330: 95a6 bdbc e981 343c 08d0 2abc eaad acbc
00000340: 548a cdbc 5ab8 84bc 44c5 463a a3c1 b93a
00000350: dafb 463c 6709 8c3c 0538 a13c 803c 583b
00000360: 764a 9dbb 0ae2 96bc 023f d33b 4bcb b5bb
00000370: 83c5 0cbb fd21 b4bc 4049 19bc 5554 8d3c
00000380: 9f06 fe3b fba4 9c3c ab82 203c 5ad3 253c
00000390: 9604 943c eeeb cfbc bf57 233c 993d b23c
000003a0: ce4c f53b 072a 12b9 4d80 96bc 7f8c 8dbc
000003b0: aef7 333c e55d 063c dc29 d5bb 5718 1d3a
000003c0: 6aa3 a83c 9b99 0c3c 3bb0 bfbc 93d7 b7bc
000003d0: bfb5 fa3a f4e4 5eba 36f3 ebbb fb53 a93a
000003e0: bb03 cc3b efc6 cbba ed98 39bc 516a 3e3a
000003f0: 09b6 293c 43c4 333c 779c 8abc e31e 7cbb
-0.011076395 -0.011830906 -0.0052048527 0.0110732755 0.008110762 0.005278861 -0.0060282093 0.016174858
-0.009519375 -0.005750563 -0.0039189304 -0.018846873 -0.014008717 -0.0046718633 0.0065553514 0.02233653
-0.023521928 -0.010310467 0.0013213679 0.009354141 -0.025254663 0.010174163 -0.019716142 -0.024163585
-0.0041001197 -0.012580292 0.006915177 0.023673207 -0.022431474 -0.023788886 -0.0018353203 -0.0075252717
0.006892778 0.012629346 -0.0054920083 -0.0051415283 -0.021118332 0.022748606 0.0063258284 0.008521946
0.016793141 -0.014289744 -0.002033078 0.005852421 -0.021057257 -0.014738544 -0.013532708 0.0039707785
0.019840084 -0.0029382044 0.015969045 0.015569979 -0.019036474 -0.0018000501 0.004644649 -0.012407344
-0.021838076 -0.020585667 0.0017403247 0.014215106 0.02194183 0.0047594337 -0.012969868 -0.004968726
-0.019836964 -0.012953673 0.006351765 -0.007550448 0.02408065 -0.005479023 -0.009447927 0.0138726
0.020173816 0.019073933 0.0019151141 -0.006892603 -0.0057425234 0.0018798725 0.0020820887 0.019858412
0.009600802 -0.011001317 -0.0165947 -0.016620578 0.024177304 -0.01750078 0.0009055111 0.015663195
-0.018501468 -0.023750672 -0.012031328 -0.009720684 0.0055333013 0.008199622 0.012387605 0.023837797
0.02110619 -0.0034534754 -0.020344231 0.02060602 0.00080068177 -0.02104691 -0.021420168 -0.024364974
0.011588907 0.0003542932 -0.01291692 -0.008105594 0.008361193 -0.018033909 -0.0011053506 -0.015352998
-0.0018775014 0.001433234 0.009622629 0.008222811 -0.015133413 -0.00542114 -0.023490757 -0.013513947
-0.022159306 -0.010885941 0.023868715 -0.012400168 0.005390092 -0.021635683 -0.021369914 0.021453561
0.009014664 0.001934986 -0.02218623 -0.0031802084 0.0037520211 0.0080503905 -0.022235645 0.023210226
-0.018310832 -0.023672603 -0.015463601 -0.01184394 -0.011874075 -0.023709511 0.020331547 -0.0246619
0.023085613 -0.022659717 0.01981889 -0.014955165 -0.018422112 0.022923063 -0.012157463 0.021878993
0.007220942 -0.021771088 -0.0063884794 -0.006763269 -0.0111887595 -0.004416684 0.004107824 0.022295153
0.0069156913 0.009605361 0.017083343 0.01587268 -0.020629894 -0.019471353 -0.00085617305 0.008759376
0.001559258 0.0077185673 0.0035692821 0.00881249 -0.013115867 -0.02258877 -0.0090539465 0.0010786997
0.018863605 -0.0160842 -0.012639478 0.012415263 0.0069600604 -0.015780518 0.014571948 0.006667232
0.0076542594 -0.0065786187 0.009254293 0.015481107 -0.015355481 0.016856281 -0.024453005 -0.0081285145
-0.015511276 0.0030113189 0.018784795 -0.005763874 -0.019041706 0.023539849 0.0042864517 0.018599907
0.014816705 -0.0049340823 -0.003029014 0.019546662 -0.023150722 0.011017301 -0.010425575 -0.021079022
-0.025090374 -0.016201187 0.00075824955 0.0014172088 0.012145007 0.017094327 0.019680033 0.0032995045
-0.004800136 -0.01841833 0.00644672 -0.005547916 -0.002148003 -0.021988863 -0.009355843 0.017252127
0.007752254 0.019121638 0.009796779 0.010121191 0.018068593 -0.025381055 0.009969651 0.021757888
0.0074859625 -0.00013939301 -0.018371725 -0.017278908 0.010984344 0.008201097 -0.006505234 0.00059927016
0.020585734 0.008581544 -0.023399463 -0.022441661 0.0019127651 -0.00085027446 -0.007200624 0.0012918705
0.0062260306 -0.0015546958 -0.011327964 0.0007263767 0.010358342 0.010972085 -0.016920311 -0.0038470558

fc1.bias f4 [120]
00000000: 3085 933b 54e3 acbc 5c61 a63c 5935 87bc
00000010: 1665 943c 17bd e83a c6ca 89bc bfd6 d63c
00000020: 5a97 793c ceeb f73b 36cb cb3b d250 37bc
00000030: 1be3 673c c924 9bbc 06a2 dc3c 87cf 0e3c
00000040: 06aa ae3c 74ed b53c e127 85b9 acd8 5c3a
00000050: 4e09 be3c 3758 72ba 8585 8bbc d143 cebc
00000060: cfc7 6ebb f2b8 31bc 587f c0bc d5a8 813c
00000070: 3c78 143b c52c 743c 0384 a8bc 8f76 83bc
00000080: 4a7f 88bc 7277 4f3c 6782 a5bc e0a3 723c
00000090: 4b70 b83a f1ce 2f3a 83dd b73c 67fa b8bc
000000a0: ee03 423b 4ed0 2bbc 06a1 bfbb 0594 f03b
000000b0: a23a d0bb 8ed9 20bc 6fe7 973b 0834 c7bb
000000c0: d7fa 2dbc 04b4 81bc 7c3b c83c 7f64 35b9
000000d0: ddd5 7cbb 697d b5bc a31f 403c bd03 fd3b
000000e0: d546 81bc 331a 1bbc a879 bbb9 7703 c13c
000000f0: 914a 22bb 3196 3a3c 7c19 86bc 91dd 2f3c
00000100: ac34 cd3c 118c 4e3c a0a4 c63c 42e3 78bc
00000110: 4bcd 0c3c 2700 86bc 9103 8b3c cb21 e4bb
00000120: 3fcf ab3c 4e61 c93c 6a09 883c cc5f a83c
00000130: f121 0b3b 7140 25bc c303 92bc c891 293b
00000140: b1aa 8db9 54f7 57bc a672 a63c 2dc6 85bc
00000150: 471a 663c 5216 b23c 3a4e b83b d81e d2bb
00000160: 18bb f23b 0290 8dbc 1919 853c 236a 4cbc
00000170: 0764 4b3c 475e 4c3c 4fc4 563c faf4 3b3c
00000180: 1614 48bc 419f 91bc ee2a 9ebc 5424 493c
00000190: 5ce6 c33b 05f3 94bc b306 603b 9417 e93c
000001a0: e099 bdbc 7e48 023c b523 8cbc 39a6 923c
000001b0: e15c a7bc 6107 bebc 1235 cc3c 94e0 63ba
000001c0: b153 f13c e7da a73c 0537 533c 6bc5 2d3c
000001d0: 7201 ebbb 211e 10bc a102 9abc ca56 52bb
0.004501961 -0.021104492 0.020310096 -0.01650493 0.018114608 0.0017756548 -0.016820323 0.026225446
0.015233839 0.007565952 0.006219293 -0.011188703 0.014153267 -0.018938439 0.026932728 0.008716471
0.021321308 0.022207953 -0.0002539745 0.00084246206 0.023197796 -0.00092447124 -0.01703144 -0.025178822
-0.0036435013 -0.010847317 -0.023498222 0.015827576 0.0022654673 0.014903252 -0.02057076 -0.016047744
-0.016662259 0.012662755 -0.020203782 0.014809579 0.0014071552 0.0006706557 0.022444492 -0.022580339
0.0029604393 -0.010486675 -0.005848053 0.007341864 -0.006354646 -0.009817494 0.0046357433 -0.0060792007
-0.010618887 -0.015832908 0.024442427 -0.00017298943 -0.003857962 -0.022154527 0.011726293 0.007721393
-0.015780846 -0.009466696 -0.0003575806 0.023561222 -0.0024763683 0.0113883475 -0.016369574 0.010733978
0.02504953 0.012606637 0.024248421 -0.015190901 0.0085938675 -0.016357495 0.016969474 -0.0069620362
0.020972846 0.024582531 0.016606051 0.020553492 0.0021229947 -0.010086165 -0.01782406 0.0025874246
-0.0002702079 -0.013181526 0.02031834 -0.01632985 0.014044351 0.021739159 0.0056245597 -0.0064123683
0.007407557 -0.017280582 0.016247319 -0.012476477 0.012413985 0.012473649 0.013108327 0.011471981
-0.01221182 -0.017776133 -0.01930758 0.012276728 0.0059783887 -0.018182287 0.003418368 0.028453626
-0.023144662 0.007951854 -0.01710687 0.017901527 -0.02043003 -0.023196878 0.02492765 -0.00086928275
0.029458852 0.020490123 0.012891536 0.01060615 -0.007171803 -0.008796246 -0.018800082 -0.0032095187

fc2.weight f4 [84, 120]
00000000: 06be e43c aa59 1abd da95 b1bd 239f 94bc
00000010: 8704 3e3d d964 953d 34a7 9b3d 5998 3f3d
00000020: 30a3 22bd a985 07bb d599 963d e4bd 81bd
00000030: 0254 2abd b802 803d bd23 73bd 9f60 92bc
00000040: 2553 75bd 5f4a 1d3d 4d61 30bd 593c a63d
00000050: 9568 83bd 9be9 b83d 7389 adbd 67a2 66bd
00000060: 1da7 98bc ac23 5bbd 35f3 9abc 63a7 a4bd
00000070: d4db 023d d049 04bd 3387 513c d483 5abd
00000080: 5325 693c 17b6 b6bd 5930 90bd 168a b53d
00000090: efd2 8a3d 6102 9ebd e06f 54bc 8152 a03d
000000a0: b417 26bb d347 82bd 8bfe 3ebd 6d42 b83d
000000b0: 404c c33c f37e 74bd 1e9f 87bd 44d1 aabd
000000c0: 12fa 9f3d 3ef1 04bc 39a5 b03d 9bdd 1a3d
000000d0: 0739 3abd 5235 2fbd aa3c a13d 02e9 8b3d
000000e0: b982 873d ac6c 923d 9542 de3c 70d2 a7bd
000000f0: d5e9 22bc 457a 183c 0bd6 173b 7d8e 9d3d
00000100: 27c8 04bd 56f2 233c 53b9 14bd 729c 1cbd
00000110: 6fce 813d 7c55 81bd b47b 5abd 6399 b8bc
00000120: 1b0b f1bc ed46 a1bd de68 e23c 821e ad3d
00000130: 2812 49bd f1a1 5ab8 1154 31bc 8912 39bd
00000140: 2d57 acbd b8d1 ec3c 61b5 aabd aea8 71bd
00000150: 0d1c 58bd f9b7 b9bd 524f 153d 16e7 2a3d
00000160: 4ecf 3fbd 4ec5 9cbd 8928 b8bd f5c0 683c
00000170: 9659 653d 6fd7 a53c 974a 893d a8cf 30bc
00000180: fdc8 a03d cf9e 97bd 9847 babd e61e 6c3d
00000190: 71a9 293c d85f 58bd cccb 6fbd 1b40 9dbd
000001a0: d5c8 8dbd 0c5b 983d c4d7 643d fcc0 a5bd
000001b0: 9371 773d d753 073d 7c31 7cbd e325 20bd
000001c0: 9656 70bc 9b45 73bc 1f5e 94bd 6463 7bbb
000001d0: 50f1 b7bd f931 9bbd 499c 31bd a7a2 063d
000001e0: 5c86 083d 5863 ec3c 84e1 093d 5e4e e03c
000001f0: 0ea2 4abc 1007 663d 59c5 dfbc 5e00 aabc
00000200: 4a40 adbc 6ccd 593b 8db2 783d bbe9 23bd
00000210: 9cdb ddbc e636 f43c 02f8 253d 6fc2 6ebd
00000220: ad41 d93c 20a8 993d d812 a33d 35ca 3dbd
00000230: d976 7ebd 63c9 d03c 8bc0 213d 8660 543d
00000240: 9228 79bc 4c6c 00bd 3457 2cbd 60f9 bfbd
00000250: add2 63bd ec56 38bc 4e7a 943c ba5e c53c
00000260: 6222 703d 502d 233d 3131 383c 2fd8 403d
00000270: 07db a1bd 0147 b4bd f006 c63c b763 ad3c
00000280: 216c c1bc c932 37bd 6d02 b2bd 13ee 83bc
00000290: 9edf 51bd f6cb 8bbd 27ef 84bd 92be 95bd
000002a0: 0bd3 1e3d cdc6 d33b 7de8 8a3d 3468 a13c
000002b0: 1b69 aebd 3dbe 8a3d 18b0 143d f838 70bd
000002c0: 47ec 9d3d 8897 b8bd 3b97 5ebd a96d 47bd
000002d0: 8fe7 d63c 824f 783c 022b a8bd 5314 e83b
000002e0: 25aa 9cbc 60fe f63c 6c8f a03c 61f9 97bd
000002f0: 9a38 38bd 687b 60bc e7e3 a4bd 4a34 c03c
00000300: 2a08 a53d ba92 203d 58b4 63bd 9dd3 053d
00000310: 6cbf bcbb 05e7 6fbc 189f 7e3c 60b6 5abc
00000320: 0b6a 923d b9c9 44bd c261 9cbc 7595 2e3d
00000330: e5ff 9a3d 5e05 683c 419f 473c 54e5 4fbc
00000340: 3ab0 97bd 002b bc3c 440a 6b3d fecd 6f3d
00000350: 080e 62bd 8c43 8f3d 324c 01bd 6a90 9a3d
00000360: 56aa a83c 76d8 573d 2a82 9bbc 8bd0 5abc
00000370: 1263 b8bd c8b2 96bd 00e5 a63d da92 1fbd
00000380: 99b8 6abc 4cc2 f7bc 5e07 1dbd 252e b9bd
00000390: 23c5 7f3c 50c6 a73d 700f 5dbd f1a3 93bd
000003a0: df13 b7bd 17d4 0e3d f4c7 ddbc d339 aabd
000003b0: 7a79 4fbd fbf5 143d 3535 bebc bdae 90bc
000003c0: 4fe9 92bd 3b9e 89bc 3ad1 1d3d aae0 953d
000003d0: 7949 1d3d 6974 ccbc 3a08 92bd 779f 07bb
000003e0: 3241 54bd 0894 e6bd 4cbf a5bd 6dde 63bd
000003f0: 51c7 64bd e7d3 8c3d d0e2 8b3b 0e39 173d
0.027922641 -0.037683167 -0.0867116 -0.018142289 0.046391036 0.07294626 0.07600251 0.04677615
-0.03970641 -0.0020679033 0.0735356 -0.06335047 -0.041584022 0.062505186 -0.059360255 -0.017868338
-0.059893746 0.038401004 -0.043061543 0.08116979 -0.06416432 0.09028932 -0.08473482 -0.056307223
-0.018634373 -0.053500816 -0.018914798 -0.08039739 0.031947926 -0.032296956 0.012788582 -0.053348377
0.01423009 -0.0892145 -0.070404716 0.088642284 0.06778514 -0.077152975 -0.012966126 0.07828236
-0.0025343718 -0.06361356 -0.04662947 0.08997045 0.02384007 -0.05969138 -0.06622146 -0.083406955
0.07811369 -0.008114157 0.08625264 0.037808996 -0.04546454 -0.04277546 0.07872899 0.06831552
0.0661673 0.07149634 0.027131358 -0.08194435 -0.009943445 0.009306495 0.002316835 0.07693193
-0.032417443 0.010006508 -0.03630955 -0.038235135 0.06338202 -0.06315133 -0.05334063 -0.022534078
-0.02942424 -0.07874856 0.027637895 0.084530845 -0.04908958 -5.212607e-05 -0.010823266 -0.045183692
-0.08415065 0.028908595 -0.083353765 -0.058998756 -0.052761126 -0.09068293 0.0364526 0.041724287
-0.04682856 -0.076548204 -0.089921065 0.014206161 0.05599364 0.020244328 0.0670368 -0.010791697
0.078508355 -0.07403337 -0.09095687 0.057646655 0.010355339 -0.05282578 -0.058543965 -0.07678243
-0.06923071 0.07439241 0.055869833 -0.080934495 0.060411047 0.03303894 -0.06157063 -0.03909863
-0.014669081 -0.014848138 -0.07244515 -0.0038358802 -0.089815736 -0.07577891 -0.043361936 0.03286996
0.03333126 0.028855965 0.033662334 0.027381118 -0.012367738 0.05615908 -0.027315782 -0.020752128
-0.02114882 0.0033234013 0.060717154 -0.040017825 -0.027082257 0.029811334 0.04051972 -0.058290895
0.026520574 0.075027704 0.079625785 -0.046335418 -0.06212506 0.025486654 0.039490264 0.051849864
-0.015207427 -0.03135328 -0.04207535 -0.093737364 -0.055620838 -0.011251193 0.018124726 0.02409302
0.05862654 0.039838135 0.011242197 0.04708117 -0.07903104 -0.088026054 0.02417323 0.021165712
-0.02361113 -0.044726167 -0.08691869 -0.016104734 -0.05123865 -0.06826012 -0.06490927 -0.07311739
0.038775485 0.006462908 0.06782625 0.019703008 -0.08516141 0.06774566 0.03630075 -0.05864808
0.07711082 -0.09013277 -0.054343443 -0.048688564 0.026233463 0.015155675 -0.08211328 0.007082501
-0.0191241 0.030150592 0.019599639 -0.07420612 -0.044975854 -0.013701297 -0.080512814 0.023462433
0.08058198 0.03920243 -0.05559191 0.032672513 -0.005760124 -0.014642482 0.015540861 -0.013349146
0.07149132 -0.04804394 -0.019089583 0.042623002 0.07568339 0.014161436 0.012183965 -0.012688953
-0.074066594 0.022969723 0.057382837 0.05854606 -0.055189162 0.069953054 -0.031566806 0.07547076
0.020589035 0.052696668 -0.018982965 -0.013355385 -0.09003271 -0.073583186 0.08149147 -0.038958408
-0.014326238 -0.030244015 -0.038337104 -0.090420045 0.015610966 0.08192122 -0.0539698 -0.07209004
-0.08939337 0.034870233 -0.027072884 -0.0831181 -0.05065296 0.036367398 -0.02321873 -0.017661447
-0.07173406 -0.016799083 0.038529612 0.07318242 0.038400147 -0.024957852 -0.07130475 -0.0020694414
-0.051819988 -0.112587035 -0.080931276 -0.055632044 -0.055854145 0.06876355 0.0042689815 0.036919646

fc2.bias f4 [84]
00000000: bff9 413d a245 52bc 6cb8 79bd a207 82bd
00000010: 7373 083c 1f10 7b3d d1ac 3f3d f3ff 8dbb
00000020: 2e52 31bd 72aa a8bd fd47 61bd a660 7bbd
00000030: 5e26 e83c 0fe6 8c3d 3cbb ae3d 78a7 a93d
00000040: 793b 31bd 920e 72bd 0e37 133d 60ef cfbc
00000050: 0e42 653b d6c9 68bd 459e e73c 29e1 953b
00000060: b278 cebc 8186 b7bb 075c 9b3d da86 9fbd
00000070: 997f 84bd b82e 4bbd 49eb 56ba 866e 2f3d
00000080: aaad a83d 1f9a a7bc 5a69 d73c c2fb a2bd
00000090: 9aed 01bc 6bd6 673d 46a9 903d 50ed bc3d
000000a0: 9200 303d c401 943d d2ee 4bbc 679f 8f3d
000000b0: 211a b83d 8ec5 9a3d e1a2 4cbc 72f1 afbc
000000c0: 2870 883c d2e6 713d 193c c1bc 5f97 b93c
000000d0: 8866 13bd 702a 2cbd 1577 68bd 66e0 18bb
000000e0: 808e 9a3b f25a 0cbc 3b1f 883d 2563 143d
000000f0: ffc5 15bc eabc 32bd 31fb 95bd 1097 67bd
00000100: 36f1 46bb d5a3 2bbd e6da b53d b123 a23b
00000110: eb59 60bd 630e abbd effd 06bd 4a88 d33d
00000120: f89d bd3c 8793 8fbc f7a1 21bd 9927 453d
00000130: bbaf 83bc bff0 ffbb d734 263c 8ab2 bbbd
00000140: 1a2d a63d cc60 8b3d 26dd fcbb 1697 aa3d
0.047357317 -0.012833985 -0.060966894 -0.06349112 0.0083283065 0.06129467 0.04679567 -0.00433349
-0.043291263 -0.08235635 -0.055000294 -0.061371468 0.028338607 0.06879818 0.08531806 0.08283895
-0.04326961 -0.059095927 0.035941176 -0.025382698 0.0034981999 -0.05683311 0.028273711 0.0045739603
-0.025204036 -0.005600751 0.07585912 -0.07789393 -0.0646965 -0.0496051 -0.00081985124 0.042830013
0.08236249 -0.020459233 0.026295353 -0.07958175 -0.007930184 0.05660097 0.07063536 0.09224951
0.042969294 0.07226899 -0.012447076 0.070128255 0.08989359 0.07557212 -0.012490005 -0.021477435
0.016655043 0.059058018 -0.023588227 0.022655187 -0.035986453 -0.04203266 -0.05675419 -0.0023327111
0.0047166944 -0.008566605 0.06646582 0.036227364 -0.009141444 -0.043637194 -0.073233016 -0.05654055
-0.0030356175 -0.04190429 0.08879642 0.0049481024 -0.054773252 -0.083523534 -0.032957014 0.103287295
0.023146614 -0.017526401 -0.039461102 0.048133466 -0.016075006 -0.0078106816 0.010144434 -0.09164913
0.08114071 0.06805572 -0.0077167926 0.083295986

fc3.weight f4 [10, 84]
00000000: abda a73d 7c5e cdbd ce78 193e d9c8 263d
00000010: 7f85 2a3e 037c 28be 1f3f 4d3c 62f7 02be
00000020: c414 8dbd 24a7 f03d 77e3 c83c fa37 19bd
00000030: 16da 0d3e 24dc 43bc ed11 aebd 5697 c7bd
00000040: f066 323d 8a41 f33d 57f0 bcbd 4b26 513d
00000050: bfb1 d23d 7a23 bbbd f49c 973d 8674 24be
00000060: bd16 8abd fd5d 8fbd 71ff 20bc 65b8 0fbe
00000070: b0e3 e53d c3b9 073e f40e c5bc 2baa 6e3b
00000080: ec46 d03d 41a3 0b3e 2fa8 c83b bb0e 6a3d
00000090: 0ac5 07bd d9f8 2fbe b7ef a0bc a5b3 93bc
000000a0: 2bc1 19bd 2325 b4bd da4d 0c3e 54df b5bd
000000b0: d276 cebd 60df 14be 06f8 e2bc 015e f13d
000000c0: b474 1dbe 6108 823d 0fed eb3c 76ab 1a3e
000000d0: 6d98 52bd f990 973d 1480 05bd aff0 91bd
000000e0: 7394 aabd a123 56bc 8a8b f13c f1ce b8bd
000000f0: b425 62bd 2e15 7d3d 895e 8dbc 0d1b 8e3c
00000100: 0853 9dbc 6582 983d 765d 403d 5b84 39bd
00000110: 7ac7 ac3d 0f67 9bbd 1640 293c db9b 13be
00000120: bf37 163e 6bd7 c5bd ff91 9d3d 74cb acbd
00000130: 85e5 68be 21c6 6b3e a2f7 b3bd 70ec ab3d
00000140: cd2e 58bd 7e72 473d 70e4 2c3d 3263 20be
00000150: c7e3 44bd 813b d7bd 97c2 f33c ec01 9abd
00000160: f028 41bd 6db7 7c3e 78ab 363d 7be6 e23c
00000170: ea1a 08bb 3683 b53d 2b28 063d d035 c93d
00000180: d171 74be 5363 19be 3093 573e 3bc2 1b3d
00000190: c0a4 bebd 7581 0a3e 1d65 503b 2abe 6a3d
000001a0: 17e0 ec3d 97a4 01bd b686 2e3d 93f0 0d3e
000001b0: d7e7 5dbd 2820 993d 6dda 9cbc f54f 3d3d
000001c0: 4d1b 50be 2bb4 eb3d 3378 3abd d6d8 0fbe
000001d0: 1d17 2bbe 8572 153d 0be4 5dbd a707 ff3d
000001e0: dd41 b0bd b188 e43c 76fe 043d 76cf 0cbe
000001f0: 308a 33be 0e80 3d3e 7d8f 7dbd 6804 c4bc
00000200: 951c ce3d df85 433d d852 623d 5933 133e
00000210: 76ac 313e a0de 113d 70e5 23be 9f46 0d3c
00000220: 1bb0 4c3d 9748 ac3d 387f c33d 6c68 ed3d
00000230: 7112 a33c a51e f63d 4d12 f93c b8ee 62bb
00000240: 7780 0dbc ecc7 71bd eb69 653d a6fc 19bc
00000250: dbb3 81bd 5a36 3bbd e36a cebc 8e13 83bd
00000260: 4a86 b4bd e338 3ebd 2d42 1d3e a395 14bd
00000270: 39fd 54bd 36a6 1a3e cc28 053e 997b b4bc
00000280: 2609 cbbd 207f 80be 77e3 a6bc bce1 94bd
00000290: 63ad d4bd d92a d1bd 0124 423e cc73 b7bc
000002a0: 5f79 efbb f965 3c3d 8b9d e93d 2288 2abd
000002b0: a1eb 4abd e69e 2ebe f18c 96bc 6c00 8f3a
000002c0: 881d 96bd 7235 e8bd 051e 37bd 4da1 af3d
000002d0: 368f 1bbc 6aa7 4ebd 6780 fc3c bd30 0a3e
000002e0: 7fd7 3f3e 2bd8 d53c e807 c03d 9d11 943d
000002f0: 0ee1 4f3d 7440 3b3d 6f1a f4bc 9f41 9dbd
00000300: 83c9 4abd 8cf6 19bd abf5 f8bd 294b 8cbd
00000310: e50c d43d 34e8 88bc cdd6 24bd d1e3 ac3d
00000320: 9d94 e9bd ca54 cb3d 0088 423d cf1f 093e
00000330: 6f58 15be 209a 3c3e cf95 493b 2f43 0f3e
00000340: 2786 8fbd 615b 5e3d d641 5bbd 385b 95bd
00000350: 06cd 123e 00ba 903d 5800 553e 523f c63d
00000360: 4551 3c3d f277 c93d 8e2d 71be 8051 403e
00000370: 5338 223d 7ed6 873b da01 a4bc 3353 cbbd
00000380: 5866 183e 8197 a23b f696 bd3d cb29 2b3d
00000390: 49b8 c9bd 5041 bc3d 61af 92bb 8801 dabd
000003a0: bf31 1abb fdde 9abd 119b 1b3e b4d4 ccbd
000003b0: 60aa d33d da28 fabd 6c7b 703e f153 c2bd
000003c0: e3b2 fa3d fad1 863c 62b2 81bd 6d66 49bd
000003d0: 0c34 d0bd 25fd b9bd 7e54 6cbd 7ed2 92bd
000003e0: e625 babd d5f5 033e bf60 d9bd 7ea2 2b3d
000003f0: dd23 a3bd 9f1a 5abd fbf7 a8bd 6a6d 5d3d
0.081960045 -0.10027787 0.1498749 0.040718887 0.16652487 -0.16453557 0.012527256 -0.12789682
-0.06888726 0.117506295 0.024522526 -0.0374069 0.13852724 -0.011954341 -0.08499513 -0.09745662
0.0435552 0.11877735 -0.09225529 0.05106191 0.102878086 -0.09137626 0.07402983 -0.16060075
-0.06742618 -0.07000349 -0.009826527 -0.14035185 0.112250686 0.13254456 -0.024054982 0.0036417346
0.10169777 0.13636495 0.0061235647 0.057142954 -0.033146895 -0.17184772 -0.019645555 -0.018029997
-0.037537735 -0.08796146 0.13701573 -0.08880487 -0.10081257 -0.14538336 -0.027706157 0.11785508
-0.1537655 0.063492544 0.028799562 0.1510447 -0.051414896 0.07400698 -0.032592848 -0.07125985
-0.08329096 -0.013070018 0.029485483 -0.09023846 -0.055211738 0.061787777 -0.017256992 0.017346883
-0.019204631 0.07446746 0.04696413 -0.04529224 0.08436485 -0.07588016 0.010330221 -0.14414923
0.14669703 -0.09660228 0.07693862 -0.08437243 -0.22743805 0.23024799 -0.087874666 0.08394706
-0.052779008 0.048693173 0.042210042 -0.1566284 -0.048068788 -0.10509396 0.029755874 -0.07519898
-0.04715818 0.24679346 0.04459712 0.027697792 -0.0020767995 0.08862917 0.03275315 0.09824717
-0.23871543 -0.14979295 0.21052241 0.03802703 -0.09308767 0.13525946 0.003179855 0.05731026
0.11566179 -0.031651106 0.04260894 0.13861303 -0.054176178 0.074768364 -0.019147122 0.04621883
-0.20322914 0.11508974 -0.045524787 -0.1404756 -0.16708036 0.036486167 -0.054172557 0.124526314
-0.086063124 0.02789721 0.032469235 -0.13751015 -0.17533183 0.1850588 -0.06190442 -0.023927882
0.10064045 0.04773509 0.055254787 0.14375056 0.17350945 0.035612702 -0.16005492 0.008622794
0.049972635 0.08412283 0.095457494 0.115921825 0.019906254 0.12017564 0.030404234 -0.003462715
-0.008636585 -0.05902855 0.056009214 -0.009398615 -0.06333133 -0.04570613 -0.025197452 -0.06400214
-0.08814676 -0.04644097 0.15357275 -0.036275517 -0.051999304 0.15102467 0.13003844 -0.022031592
-0.09913854 -0.2509699 -0.020372136 -0.07269618 -0.103846334 -0.10213251 0.18959047 -0.022394083
-0.0073081697 0.045995686 0.11407002 -0.041633733 -0.04954112 -0.17052802 -0.018377753 0.001091016
-0.073298514 -0.11338319 -0.044706363 0.085756876 -0.009494593 -0.050452627 0.030822946 0.13495155
0.18734549 0.026104053 0.09376508 0.07229922 0.05075174 0.045715764 -0.02979776 -0.07678532
-0.049508583 -0.03758864 -0.121562324 -0.06850273 0.10354022 -0.016712286 -0.040243912 0.0844189
-0.11405299 0.099282816 0.04749298 0.1339104 -0.14584516 0.18418169 0.003075946 0.13990472
-0.070080094 0.054286364 -0.053529583 -0.07292789 0.14336023 0.07066727 0.20800912 0.09680046
0.045975942 0.09837331 -0.23552534 0.1878109 0.039604496 0.0041454425 -0.020020414 -0.09927978
0.14882791 0.0049619083 0.09257309 0.041787904 -0.09849603 0.09192145 -0.004476473 -0.10644823
-0.0023528186 -0.07562063 0.15195872 -0.100015074 0.10335231 -0.12214823 0.23484582 -0.09488667
0.12241151 0.016457547 -0.06332852 -0.049169946 -0.10166177 -0.090814866 -0.057697766 -0.071690544
-0.0908926 0.12886746 -0.10614156 0.04190301 -0.07965825 -0.053248044 -0.082504235 0.054059424

fc3.bias f4 [10]
00000000: 3094 823c b031 cd3d 0253 88bd fdcf 87bd
00000010: 012d 48bd 3f89 4ebd a717 c6bd 1c0d 16bd
00000020: 1088 8e3d 3c34 3b3b
0.015939802 0.10019243 -0.066564575 -0.066314675 -0.048871044 -0.050423857 -0.0967248 -0.036633596
0.069595456 0.002856507
